p2_continuous-control/checkpoint_critic.pth (torch_old, 542662 bytes, 5 tensors)

fcs1.weight f4 [400, 33]
0.0032091406 0.0043803942 -0.0008456209 -0.0026335707 2.6718122e-05 0.00024336227 -0.000879567 0.00057809585
0.00047188657 -0.0014358188 0.00062720396 0.00034184536 0.0006529678 0.0006985338 0.0015608876 0.0011081934
-1.0076061e-05 -0.00089673506 -0.00031218719 -9.152214e-05 0.00092720886 0.00093223515 -0.002036321 0.0020019512
0.00058588583 0.00025328633 -0.0024741227 0.0037920948 -0.00029250476 9.0885e-41 -0.0037920948 -1.38474e-40
-0.0002833043 0.00032833157 0.0011909514 -0.0004112098 -0.00040205146 0.00014840037 -9.848786e-05 9.1553025e-05
-5.5463306e-07 5.648779e-05 -0.00015064994 -5.9563732e-05 -0.00029169765 8.056198e-05 0.00036545336 -0.00021514442
2.0910189e-05 0.0001127272 5.7331827e-06 -2.4496132e-06 0.00014362116 -8.1576865e-05 -0.00031420882 1.6245524e-05
0.00032864482 0.00011162862 -0.00042108586 -0.00042194637 0.00077476224 4.85684e-05 -1.0368e-40 -0.00077476224
-1.12009e-40 -5.462747e-05 0.00056439126 0.006131239 -0.00057550205 -0.0008453166 0.00047218608 -0.00018193768
6.359688e-05 0.00095183705 7.086847e-05 -0.00032058047 0.001073669 0.00059174583 0.00226734 -0.0005555866
0.002790896 0.00020066278 0.0005627382 -7.105405e-05 -0.00010419822 0.0011546527 0.00019599583 -0.0022906994
-0.0016913186 0.002072399 -0.00091341767 0.0011982986 -0.0040923194 0.0044870465 1.9429237e-05 9.8364e-41
-0.0044870465 -1.39851e-40 -0.0004658296 0.0013495461 0.0051677027 -2.5166479e-05 -0.0020882618 0.0020455695
-0.0011363776 0.0020956504 -0.000752775 -0.0008581976 -0.0009946546 0.0014416111 -0.00058969524 0.0015052035
0.000289114 0.0017175034 0.00066965463 0.0012722323 -0.000112983114 0.0002099524 -0.0022045455 0.0012368663
-0.002213368 -0.003810249 0.0014045904 0.00021018359 -0.0023467776 -0.0006025221 0.005898056 -0.0005638267
-9.7159e-41 -0.005898056 7.6383e-41 0.0008573103 0.0028840762 0.004690207 -0.0005012843 -0.002287583
0.00069507933 -0.0013759283 5.1793457e-05 -0.0002059115 0.00095378316 -0.0012241842 0.0012669015 0.0018148877
0.0019898147 -0.0007606696 0.0010845017 0.0009464713 0.0001714495 0.0016413904 -0.0003943469 -0.00032643985
0.00054945494 -0.00046855793 -0.0007586195 0.0016787522 -0.000566785 -0.0007850403 -0.0017765764 0.0070095975
0.00087025255 -8.671e-42 -0.0070095975 -1.1376e-41 0.0018399598 0.03950768 0.042540673 -0.0035315233
-0.0067998674 0.0012127453 0.03930658 -0.020829078 0.011772108 0.0011851303 -0.0048034308 0.008965289
0.0064275577 0.0022406278 -0.010849463 -0.022288134 -0.005939636 -0.041789997 0.019397756 -0.047613293
0.045596648 -0.0016754385 -0.004661914 0.0013678895 0.005280891 0.0040270197 0.005127507 -0.0057684765
-0.004660237 0.03136464 8.4479e-41 0.004660237 1.6243e-40 0.46231657 0.0572683 -0.024690162
-0.082007915 -0.054298036 0.028401058 -0.033127017 -0.022308951 0.018877078 -0.005354354 -0.0040751146
-0.0038885232 -0.0055291206 0.009415653 -0.1181726 0.08844544 0.143629 0.01766071 -0.011384146
-0.040611163 0.021910401 -0.011457955 -0.0032141202 -0.008175424 -0.001252433 0.0048285914 0.025066698
0.06528243 0.0032714903 -0.08174528 -1.48142e-40 -0.0032714903 -1.01608e-40 0.09531173 0.0014828879
0.0045964937 -0.00023857428 -0.0011427588 -0.00091203407 -0.00087488507 -9.535042e-05 0.001335705 0.00096120796
-0.00022313184 0.00029564608 -0.0007168809 -0.0011320765 0.00030704273 0.001856731 2.9581317e-06 0.00044021674
0.00061641255 -0.0013640774 0.00091018254 0.0014172014 -0.0007130201 -0.0004254083 0.0025142962 -0.00021736264
00000000: 7250 523b 6989 8f3b a8ac 5dba fc97 2cbb
00000010: bb20 e037 102f 7f39 be92 66ba 5b8b 173a
00000020: 8b67 f739 1632 bcba f26a 243a b539 b339
00000030: ed2b 2b3a cf1d 373a b296 cc3a cd40 913a
00000040: 5a0c 29b7 df12 6bba 0ead a3b9 93ef bfb8
00000050: ef0f 733a 3e61 743a cc73 05bb 2b33 033b
00000060: 2296 193a 84cb 8439 e424 22bb cb84 783b
00000070: 535b 99b9 5afd 0000 cb84 78bb 0282 0180
00000080: 7688 94b9 eb23 ac39 b319 9c3a a597 d7b9
00000090: 6fca d2b9 ec9b 1b39 448b ceb8 2800 c038
000000a0: 18e2 14b5 4ded 6c38 c9f7 1db9 12d4 79b8
000000b0: ffee 98b9 62f3 a838 529a bf39 6498 61b9
000000c0: 4a68 af37 f467 ec38 aa5f c036 0964 24b6
000000d0: 0399 1639 3f14 abb8 65bc a4b9 ff46 8837
000000e0: f64d ac39 291a ea38 30c5 dcb9 af38 ddb9
000000f0: 6a19 4b3a ecb5 4b38 0521 0180 6a19 4bba
00000100: 3c38 0180 cd1f 65b8 a8f3 133a 8fe8 c83b
00000110: 4add 16ba 3d98 5dba be8f f739 86c6 3eb9
00000120: 515f 8538 b484 793a 389f 9438 9513 a8b9
00000130: 5aba 8c3a 641f 1b3a a797 143b c9a4 11ba
00000140: 77e7 363b 0169 5239 b984 133a da02 95b8
00000150: fe84 dab8 b757 973a 3b84 4d39 8f1f 16bb
00000160: 3caf ddba 16d1 073b 6c72 6fba 3b10 9d3a
00000170: dd18 86bb 1308 933b f8fb a237 3312 0100
00000180: 1308 93bb d985 0180 973a f4b9 41e3 b03a
00000190: d555 a93b 9a1c d3b7 38db 08bb f60e 063b
000001a0: 81f2 94ba 2e57 093b e055 45ba abf8 60ba
000001b0: 125f 82ba 71f4 bc3a c795 1aba 404a c53a
000001c0: 3994 9739 da1d e13a c38b 2f3a 08c1 a63a
000001d0: 59f1 ecb8 ab26 5c39 237a 10bb 591e a23a
000001e0: 270e 11bb 5fb5 79bb 3c1a b83a ba64 5c39
000001f0: 65cc 19bb 93f2 1dba 7b44 c13b c5cd 13ba
00000200: d70e 0180 7b44 c1bb edd4 0000 1fbd 603a
00000210: c502 3d3b 4fb0 993b 9f68 03ba 46eb 15bb
00000220: fc35 363a 7e58 b4ba cd3c 5938 f3e9 57b9
00000230: 4e07 7a3a ce74 a0ba 290e a63a 87e1 ed3a
00000240: 8d67 023b ac67 47ba d725 8e3a 9d1c 783a
00000250: 20c7 3339 ec23 d73a 58c0 ceb9 0426 abb9
00000260: 4c09 103a c8a8 f5b9 18de 46ba 9409 dc3a
00000270: 4c94 14ba 2acb 4dba 03dc e8ba c4b0 e53b
00000280: a921 643a 2c18 0080 c4b0 e5bb b61f 0080
00000290: ce2a f13a ced2 213d 213f 2e3d 2171 67bb
000002a0: 6cd1 debb fbf4 9e3a f0ff 203d bea1 aabc
000002b0: cddf 403c 6056 9b3a 1966 9dbb 26e3 123c
000002c0: 439e d23b 7fd7 123b f2c1 31bc 9b95 b6bc
000002d0: 47a1 c2bb fd2b 2bbd 0be8 9e3c 2806 43bd
000002e0: 8dc3 3a3d 639a dbba f8c2 98bb c14a b33a
000002f0: 530b ad3b 17f5 833b a504 a83b 7d05 bdbb
00000300: e7b4 98bb 3578 003d 7eeb 0000 e7b4 983b
00000310: cac4 0100 c2b4 ec3e 2a92 6a3d 0643 cabc
00000320: c4f3 a7bd 9e67 5ebd 56a9 e83c 32b0 07bd
00000330: 43c1 b6bc 1aa4 9a3c 9473 afbb 8a88 85bb
00000340: 98d6 7ebb a02d b5bb 1c44 1a3c 7a04 f2bd
00000350: e222 b53d 7b13 133e 31ad 903c 9284 3abc
00000360: e457 26bd 717d b33c 26ba 3bbc fda3 52bb
00000370: 37f2 05bc ae28 a4ba 2939 9e3b ad58 cd3c
00000380: cbb2 853d 8066 563b 126a a7bd f69c 0180
00000390: 8066 56bb 3e1b 0180 cc32 c33d 765d c23a
000003a0: 2f9e 963b cc29 7ab9 9fc8 95ba 9215 6fba
000003b0: 8b58 65ba def6 c7b8 d312 af3a 93f9 7b3a
000003c0: 7ff8 69b9 f200 9b39 10ed 3bba 2f62 94ba
000003d0: 94fa a039 8e5d f33a 5184 4636 e4cc e639
000003e0: bf96 213a d8ca b2ba 5199 6e3a 63c1 b93a
000003f0: f8e9 3aba 5609 dfb9 e4c6 243b d7eb 63b9

fcs1.bias f4 [400]
-0.003792095 -0.00077476224 -0.0044870465 -0.005898056 -0.0070095975 0.0046602194 -0.0032714854 -0.0024860734
-0.0027978267 -0.002627762 -0.0037469591 -0.050319694 -0.06306426 -0.0015868085 0.0021561803 -0.0053729983
-0.0042541763 -0.005332467 0.0056627425 -0.004639929 0.057916813 -0.002983047 -0.010871964 -0.0042113843
-0.003947757 -0.008878154 -0.0032802748 -0.026937157 -0.027347613 -0.036468163 -0.0316187 -0.0022480385
-0.009611206 -0.002903633 -0.0051010745 -0.01712322 -0.018711537 -0.004902791 -0.0055858307 -0.029692082
0.056374673 -0.004594587 -0.008880899 -0.005859113 0.008425315 -0.05111352 -0.0032668898 -0.010117647
-0.0059921425 -0.0064495895 -0.0034140935 -0.002164921 -0.0022410394 0.04583659 -0.0019199264 -0.007361042
-0.0011378514 -0.020311011 -0.001972486 -0.027447121 0.012667581 -0.01939974 -0.004668958 -0.004333948
-0.004084757 0.014986749 -0.008305076 -0.00480293 -0.0046728984 -0.0042870655 -0.004160786 -0.06950691
-0.004268121 0.016464466 -0.0025921543 -0.0031769092 -0.01456022 0.006151646 -0.0040980573 -0.0063006696
0.0043835696 -0.001518557 -0.0031871519 -0.018212961 -0.021197127 -0.008140617 0.041379582 0.024834367
-0.011065395 -0.0055857827 -0.00033912406 0.060063526 -0.039329514 -0.016884025 -0.0035744468 -0.0034648338
-0.018709064 -0.028439421 -0.0034085233 -0.009348264 -0.0075897784 0.048113383 0.008094456 -0.0038719713
-0.003956477 -0.00841432 -0.0019136313 0.0020160684 -0.017884199 -0.00085024664 -0.006634257 -0.006121274
-0.025363307 -0.025057813 -0.052224454 -0.002728727 0.062412594 -0.011218873 -0.036844213 -0.007286459
-0.01909003 -0.03563016 -0.041877408 -0.0053637987 -0.053538628 -0.0024192359 -0.012568471 -0.008487097
-0.01706437 -0.0005429771 -0.022526925 -0.00702348 -0.010110089 -0.018070437 -0.0048417933 -0.003963729
-0.007946615 0.00022831332 -0.0012919809 -0.003396475 -0.03125044 -0.0034702253 -0.0037130637 -0.0033469342
-0.00041772504 -0.002054041 -0.005183508 -0.004390659 -0.0030572454 -0.005116044 0.040473457 -0.004432585
-0.0014444146 0.009744654 -0.008811298 0.009889421 -0.0012935017 -0.013390563 0.00027403564 -0.0011984303
-0.002961835 -0.0012087678 -0.0408658 -0.0033078073 -0.0046174875 -0.010190412 -0.0047000884 -0.0026579266
-0.0029809137 -0.005683639 0.024735864 -0.009338811 -0.005243 -0.036741607 -0.04538568 0.0057934565
-0.0016404004 -0.0024854147 0.017688952 -0.005481998 -0.046556644 -0.00237505 -0.0039576064 -0.0025998426
-0.0050273114 -0.00036581373 -0.0027027063 -0.003298166 -0.00509466 -0.0039742426 -0.028078767 -0.0072860667
0.003265688 -0.0073734284 -0.0058534862 -0.0037269075 -0.0284229 -0.004737309 -0.002824905 -0.020483885
-0.0028909033 0.029857595 -0.008257684 0.005445928 -0.0012461176 0.0007118742 0.035121046 -0.0034497648
-0.015819259 -0.008979219 0.018164359 0.0113968365 -0.0024074109 -0.0029185058 -0.0036291059 -0.019321531
-0.013405269 -0.017491851 -0.009791688 -0.024391891 -0.06907138 -0.0022027472 -0.0046553295 -0.0042253593
-0.02148109 -0.004638732 -0.0023095026 -0.030977024 -0.0042927717 -0.006916456 -0.0059262584 -0.024530303
-0.0025275142 -0.07587621 -0.002252888 -0.0025703874 -0.001912369 -0.015835775 -0.004288093 -0.031192213
-0.020703914 -0.056798704 0.009491727 -0.03979081 -0.0022715444 -0.009769758 -0.007326318 -0.004243931
-0.0140774995 -0.015205669 0.019932626 -0.052966766 -0.003896259 -0.011768917 -0.0048515494 -0.000971824
00000000: cc84 78bb 6a19 4bba 1308 93bb 7b44 c1bb
00000010: c4b0 e5bb c1b4 983b 6b66 56bb 64ed 22bb
00000020: be5b 37bb 8836 2cbb 8b8f 75bb 061c 4ebd
00000030: d627 81bd 75fc cfba b44e 0d3b fa0f b0bb
00000040: 9e66 8bbb fabb aebb 878e b93b 8c0a 98bb
00000050: 2e3a 6d3d 397f 43bb 5220 32bc a7ff 89bb
00000060: 305c 81bb ad75 11bc e1f9 56bb 50ab dcbc
00000070: 1a08 e0bc a45f 15bd 9c82 01bd d453 13bb
00000080: 5278 1dbc e14a 3ebb ea26 a7bb ff45 8cbc
00000090: f048 99bc 98a7 a0bb 5809 b7bb cf3c f3bc
000000a0: 21e9 663d 308e 96bb 3181 11bc cdfd bfbb
000000b0: 550a 0a3c 695c 51bd 5119 56bb 7dc4 25bc
000000c0: bc59 c4bb 1457 d3bb fcbe 5fbb 59e1 0dbb
000000d0: 67de 12bb 26bf 3b3d 0aa6 fbba e534 f1bb
000000e0: f523 95ba 4763 a6bc d344 01bb c9d8 e0bc
000000f0: b08b 4f3c 34ec 9ebc 0ffe 98bb ca03 8ebb
00000100: 6dd9 85bb fb8a 753c 0312 08bc e661 9dbb
00000110: 1d1f 99bb 837a 8cbb 3457 88bb a459 8ebd
00000120: 98db 8bbb 7de0 863c 22e1 29bb b133 50bb
00000130: fd8d 6ebc bf93 c93b ff48 86bb d975 cebb
00000140: 0ca4 8f3b 510a c7ba 89df 50bb 5933 95bc
00000150: 99a5 adbc 3960 05bc a37d 293d 7171 cb3c
00000160: a14b 35bc f108 b7bb 76cc b1b9 2c05 763d
00000170: fc17 21bd 5e50 8abc 4441 6abb 4412 63bb
00000180: c043 99bc caf9 e8bc 8861 5fbb 7629 19bc
00000190: adb3 f8bb 8a12 453d 9c9e 043c e6c0 7dbb
000001a0: 56a5 81bb 37dc 09bc d0d2 faba 0420 043b
000001b0: e281 92bc 16e3 5eba 2e64 d9bb f894 c8bb
000001c0: b6c6 cfbc 0b46 cdbc 4fe9 55bd 71d4 32bb
000001d0: 59a4 7f3d 5dcf 37bc f5e9 16bd 40c3 eebb
000001e0: b262 9cbc eef0 11bd a587 2bbd cec2 afbb
000001f0: 524b 5bbd 0b8c 1ebb fdeb 4dbc 770d 0bbc
00000200: 94ca 8bbc 9456 0eba 638a b8bc 3825 e6bb
00000210: c9a4 25bc 7408 94bc e8a7 9ebb 2be2 81bb
00000220: 8532 02bc 6467 6f39 af57 a9ba 6597 5ebb
00000230: 7600 00bd b86c 63bb df56 73bb 3d58 5bbb
00000240: 1b02 dbb9 179d 06bb 6bda a9bb 84df 8fbb
00000250: 115c 48bb 7da4 a7bb 7fc7 253d 383f 91bb
00000260: 8352 bdba 0ba8 1f3c 435d 10bc 3d07 223c
00000270: b78a a9ba 1864 5bbc 71ac 8f39 a614 9dba
00000280: 581b 42bb 846f 9eba e662 27bd ccc7 58bb
00000290: 4b4e 97bb b0f5 26bc 3303 9abb 9c30 2ebb
000002a0: 6f5b 43bb d23d babb dea2 ca3c d001 19bc
000002b0: 79cd abbb 5e7e 16bd 56e6 39bd 09d7 bd3b
000002c0: b402 d7ba 57e2 22bb 6ce8 903c 55a2 b3bb
000002d0: 2eb2 3ebd baa6 1bbb cfae 81bb 1f62 2abb
000002e0: 25bc a4bb b0ca bfb9 e31f 31bb 0b26 58bb
000002f0: 1bf1 a6bb 5d3a 82bb 7105 e6bc f5bf eebb
00000300: 2705 563b cd9c f1bb 9ace bfbb 223f 74bb
00000310: 24d7 e8bc 6e3b 9bbb 0b22 39bb d2cd a7bc
00000320: 4f75 3dbb ea97 f43c 3d4b 07bc c173 b23b
00000330: c554 a3ba 129d 3a3a 16db 0f3d 7315 62bb
00000340: 6497 81bc 931d 13bc 6ccd 943c ccb9 3a3c
00000350: a7c5 1dbb 6744 3fbb 4bd6 6dbb 3048 9ebc
00000360: c6a1 5bbc 124b 8fbc 516d 20bc 81d1 c7bc
00000370: 4c75 8dbd f75b 10bb bc8b 98bb e274 8abb
00000380: 1cf9 afbc 8100 98bb 065b 17bb 87c3 fdbc
00000390: 61aa 8cbb 70a3 e2bb 0f31 c2bb c6f3 c8bc
000003a0: a7a4 25bb fd64 9bbd 30a5 13bb f273 28bb
000003b0: 75a8 faba 07ba 81bc 2283 8cbb d086 ffbc
000003c0: 419b a9bc c2a5 68bd 3083 1b3c b0fb 22bd
000003d0: 31de 14bb 5611 20bc 9c11 f0bb ac10 8bbb
000003e0: 50a5 66bc 3321 79bc bf49 a33c aef3 58bd
000003f0: 6158 7fbb 6ad2 40bc bff9 9ebb 01c2 7eba

fc2.weight f4 [300, 404]
1.98832e-40 -2.8658e-41 4.22e-42 1.8017e-40 2.10419e-40 9.784e-42 7.9703e-41 -1.47461e-40
-1.29225e-40 -7.7541e-41 -2.23045e-40 4.5176e-41 4.7972e-41 6.4048e-41 1.37341e-40 1.29252e-40
-2.40197e-40 1.42703e-40 1.51049e-40 -2.0956e-41 -6.862e-41 -1.87976e-40 -4.3046e-41 -2.18582e-40
-1.76792e-40 2.7136e-41 1.96318e-40 6.297e-42 -3.965e-41 2.00466e-40 -8.2677e-41 -8.179e-41
2.14303e-40 -2.34982e-40 -5.7026e-41 9.1943e-41 -7.5237e-41 1.37955e-40 -1.90526e-40 1.38863e-40
6.3908e-41 -1.23844e-40 -1.24119e-40 -4.1079e-41 -1.83413e-40 -6.3529e-41 -1.43577e-40 -1.35478e-40
-1.69822e-40 -7.0058e-41 -2.41526e-40 1.09007e-40 -2.06717e-40 4.2639e-41 1.99508e-40 9.5655e-41
1.50242e-40 7.7975e-41 -1.66331e-40 -6.2701e-41 9.5983e-41 4.88e-41 -5.9069e-41 1.78654e-40
-1.4535e-40 -7.2778e-41 4.2571e-41 1.44976e-40 8.3527e-41 4.928e-41 -2.18434e-40 1.59091e-40
1.36241e-40 6.6136e-41 2.13233e-40 -2.03896e-40 -7.0128e-41 -6.1251e-41 -2.35e-40 1.6003e-41
2.4394e-41 -3.0073e-41 2.37635e-40 -7.3239e-41 -1.0162e-41 1.13645e-40 -8.0153e-41 -3.8073e-41
2.31426e-40 2.119e-41 2.8644e-41 1.9807e-41 1.25596e-40 -1.9702e-41 1.89767e-40 -1.13914e-40
1.02253e-40 4.8691e-41 2.3443e-40 -2.7194e-41 -1.39739e-40 5.4816e-41 8.2583e-41 -1.27426e-40
-8.525e-41 1.62842e-40 -2.14657e-40 5.6336e-41 4.3145e-41 -1.41001e-40 3.3736e-41 2.00997e-40
7.3745e-41 -7.9108e-41 5.3008e-41 3.7778e-41 -2.0135e-41 1.05596e-40 3.62e-42 -5.4115e-41
7.7366e-41 -6.797e-41 -6.8999e-41 -1.89981e-40 -1.37145e-40 -2.18988e-40 6.8022e-41 2.19445e-40
9.1537e-41 8.2719e-41 -1.0119e-41 1.12541e-40 1.19793e-40 -1.4589e-41 2.1235e-41 -2.1825e-41
7.0698e-41 -8.423e-42 -3.954e-41 -1.30237e-40 -4.086e-41 2.11526e-40 -1.26616e-40 -1.76272e-40
1.94106e-40 -1.91957e-40 -1.0988e-41 -1.71662e-40 -1.39847e-40 -1.89768e-40 -1.9697e-41 1.68178e-40
6.8706e-41 9.9814e-41 -1.94911e-40 -1.28e-43 6.92e-42 7.6658e-41 -9.7006e-41 2.42918e-40
5.7341e-41 1.50932e-40 -1.01568e-40 2.32861e-40 -2.20985e-40 2.37e-43 -8.188e-42 2.01664e-40
-1.72693e-40 -2.44322e-40 2.4789e-41 -8.4902e-41 1.10178e-40 -9.7766e-41 -6.5442e-41 8.0783e-41
2.38438e-40 1.34544e-40 8.125e-42 5.3328e-41 7.4721e-41 1.55576e-40 -1.39928e-40 2.31661e-40
-5.2127e-41 1.57589e-40 2.09721e-40 1.9507e-40 -1.68753e-40 -1.76631e-40 -1.0948e-40 1.87122e-40
7.9112e-41 1.70161e-40 -2.12686e-40 -2.04875e-40 -9.81e-43 1.06726e-40 1.86427e-40 7.128e-42
2.4482e-41 7.3287e-41 1.76066e-40 -1.28149e-40 -5.3706e-41 -5.93e-41 6.778e-41 -1.08e-42
-4.214e-41 2.00188e-40 -8.6532e-41 8.39e-41 -9.2341e-41 -2.02723e-40 -6.8385e-41 -3.6005e-41
6.8858e-41 -2.1658e-41 2.3085e-41 -1.3195e-41 -7.7804e-41 2.17685e-40 -1.98634e-40 7.6009e-41
9.0663e-41 1.21093e-40 1.05216e-40 3.0094e-41 2.14617e-40 1.07424e-40 -6.0106e-41 -1.0196e-41
1.25874e-40 1.08283e-40 9.3153e-41 -1.3394e-41 -1.8826e-41 -9.2633e-41 -2.17144e-40 7.779e-42
-8.974e-41 -2.9387e-41 -2.716e-42 -2.1869e-41 2.185e-40 -1.62849e-40 1.06633e-40 -1.00566e-40
7.2915e-41 -3.5562e-41 -7.7925e-41 -1.07225e-40 -2.07926e-40 9.358e-41 -1.98565e-40 -1.37938e-40
00000000: 432a 0200 e34f 0080 c30b 0000 3ef6 0100
00000010: 904a 0200 461b 0000 2ede 0000 109b 0180
00000020: 3a68 0180 27d8 0080 c26d 0280 ef7d 0000
00000030: ba85 0000 8ab2 0000 da7e 0100 4d68 0100
00000040: 929d 0280 cc8d 0100 10a5 0100 6b3a 0080
00000050: 49bf 0080 000c 0280 ff77 0080 5161 0280
00000060: d3ec 0180 a54b 0000 4123 0200 8e11 0000
00000070: 876e 0080 d12e 0200 78e6 0080 ffe3 0080
00000080: 6455 0200 098f 0280 f79e 0080 4d00 0100
00000090: bbd1 0080 9080 0100 1c13 0280 1883 0100
000000a0: 26b2 0000 3a59 0180 fe59 0180 8372 0080
000000b0: 48ff 0180 18b1 0080 3c90 0180 a879 0180
000000c0: 65d9 0180 4bc3 0080 47a1 0280 de2f 0100
000000d0: 3e40 0280 dc76 0000 262c 0200 a60a 0100
000000e0: d0a2 0100 5dd9 0000 aacf 0180 c9ae 0080
000000f0: 900b 0100 0988 0000 a9a4 0080 04f2 0100
00000100: 2d95 0180 e0ca 0080 ac76 0000 2294 0100
00000110: d7e8 0000 5f89 0000 e860 0280 7bbb 0100
00000120: c97b 0100 5cb8 0000 6852 0200 6138 0280
00000130: 7dc3 0080 beaa 0080 168f 0280 9c2c 0000
00000140: 0044 0000 d553 0080 6e96 0200 29cc 0080
00000150: 541c 0080 cc3c 0100 6fdf 0080 226a 0080
00000160: 1f85 0200 123b 0000 d94f 0000 3737 0000
00000170: 1c5e 0100 ec36 0080 fe10 0200 8c3d 0180
00000180: 0a1d 0100 bb87 0000 7f8d 0200 ce4b 0080
00000190: 8985 0180 ce98 0000 35e6 0000 3663 0180
000001a0: a4ed 0080 f0c5 0100 6056 0280 0b9d 0000
000001b0: 4578 0000 0e89 0180 0b5e 0000 4c30 0200
000001c0: 92cd 0000 85dc 0080 c493 0000 4f69 0000
000001d0: 2138 0080 5c26 0100 170a 0000 da96 0080
000001e0: aad7 0000 79bd 0080 57c0 0080 9711 0280
000001f0: 4e7e 0180 7362 0280 9ebd 0000 b963 0200
00000200: 2bff 0000 96e6 0000 351c 0080 b839 0100
00000210: ef4d 0100 ab28 0080 323b 0000 d73c 0080
00000220: 14c5 0000 7b17 0080 396e 0080 0c6b 0180
00000230: e771 0080 a64d 0200 f460 0180 60eb 0180
00000240: 171d 0200 1917 0280 a11e 0080 86de 0180
00000250: d685 0180 ff10 0280 e836 0080 d0d4 0100
00000260: 86bf 0000 3e16 0100 551f 0280 5b00 0080
00000270: 4a13 0000 b1d5 0000 6a0e 0180 28a5 0200
00000280: d89f 0000 bda4 0100 211b 0180 1f89 0200
00000290: 0468 0280 a900 0000 d316 0080 2832 0200
000002a0: 66e1 0180 12a9 0280 1a45 0000 acec 0080
000002b0: 2233 0100 8810 0180 6db6 0080 31e1 0000
000002c0: ab98 0200 0e77 0100 a616 0000 a894 0000
000002d0: 4bd0 0000 afb1 0100 1086 0180 c785 0200
000002e0: 4f91 0080 4bb7 0100 9e48 0200 c71f 0200
000002f0: 6ad6 0180 60ec 0180 3031 0180 9f09 0200
00000300: 88dc 0000 57da 0100 e250 0280 1c3b 0280
00000310: bc02 0080 8229 0100 af07 0200 df13 0000
00000320: 3f44 0000 4bcc 0000 cdea 0100 3a65 0180
00000330: b695 0080 4ea5 0080 f1bc 0000 0303 0080
00000340: 7875 0080 0b2e 0200 37f1 0080 e1e9 0000
00000350: 6901 0180 1c35 0280 a1be 0080 5e64 0080
00000360: f3bf 0000 603c 0080 5a40 0000 c824 0080
00000370: e3d8 0080 d15e 0200 b629 0280 e2d3 0000
00000380: bbfc 0000 8f51 0100 4d25 0100 e453 0000
00000390: 4456 0200 742b 0100 8da7 0080 6c1c 0080
000003a0: e35e 0100 d92d 0100 ac03 0100 5625 0080
000003b0: 7b34 0080 3902 0180 4f5d 0280 af15 0000
000003c0: 29fa 0080 eb51 0080 9207 0080 f63c 0080
000003d0: 1761 0200 f5c5 0180 4029 0100 5618 0180
000003e0: 42cb 0000 2263 0080 39d9 0080 e62a 0180
000003f0: 9d43 0280 dd04 0100 8529 0280 8480 0180

fc2.bias f4 [300]
-3.9826124e-26 0.09562695 -2.0752649e-16 -7.521792e-20 -2.7604186e-09 -1.5435232e-08 -6.599789e-17 -9.7608194e-14
-4.0422548e-19 0.10176239 -7.414407e-08 0.040265027 -1.0539909e-10 -0.0020855658 0.03963759 -0.0022372052
-3.3087654e-05 -1.8454958e-08 -2.4536692e-12 -6.375063e-10 -0.0012509113 -0.00024494226 -1.5475604e-14 -0.00044548584
-6.629454e-19 -1.2843549e-06 -4.7340118e-20 -7.346468e-06 -0.041165393 -5.4416544e-14 0.04385947 -9.851161e-13
-3.3474355e-06 0.12054875 -2.6336896e-11 -1.7871635e-05 -0.001470441 -5.175093e-06 -1.237667e-11 -1.2965446e-21
-9.269277e-18 -1.808323e-20 -8.005134e-05 -9.378938e-06 -0.00019812628 -7.533521e-05 -8.167439e-11 0.13738795
-2.8674888e-21 -1.4555378e-10 -3.2044787e-05 -0.003755295 -0.00010161611 -0.00028805854 -0.00027659565 -5.550367e-07
0.11544002 -1.8090697e-08 -6.637067e-15 -2.2163053e-12 0.12940975 0.14722903 -6.4877554e-06 -1.4172798e-17
-6.003805e-11 -2.417013e-14 -2.7275045e-11 -4.940543e-06 -1.1809449e-07 -5.5111605e-22 -4.4219737e-06 0.087365665
-2.0511281e-05 -1.9687174e-09 0.034159653 -1.4974939e-17 -5.875375e-20 -6.8511756e-05 -9.268524e-15 -3.1552168e-16
0.108581044 -0.0001796597 -5.7839515e-09 -5.2727574e-07 -0.0025339974 -3.10271e-22 -1.1270839e-07 -1.2390899e-05
-7.032297e-12 -5.066264e-06 -4.2843585e-06 -1.08604956e-16 0.097005606 -0.03829062 -0.0002905922 -6.873314e-24
-0.0019293748 -6.2687117e-12 -0.00046486722 -3.6976282e-06 -8.494773e-15 -1.270905e-14 -0.0015756323 0.10242228
-0.0009966708 -1.8129522e-06 -2.2671756e-12 -6.7688335e-17 -4.7801495e-06 0.077542946 -3.367267e-14 -0.0025910377
-1.4698616e-06 -0.00029962717 -6.2998547e-12 -0.0010287638 -7.5261997e-13 -5.1092804e-18 -5.2686916e-10 -4.2104364e-10
-5.6729463e-25 -8.4490006e-05 -0.062218193 -2.2614739e-07 -1.0869926e-14 -5.324693e-10 -1.1632707e-15 -0.0033146727
-1.464719e-19 -6.8746235e-06 -6.2638325e-11 -0.0004868224 -5.6864494e-05 -6.291135e-08 -3.976399e-10 -3.442196e-06
0.005315241 -2.6200753e-15 -0.00023496668 0.0319906 -2.6778227e-13 -5.247095e-09 -8.877564e-05 -5.784287e-10
-1.7512755e-23 -1.6918419e-12 -6.6001946e-26 -1.4204528e-05 -5.312537e-13 -3.7201019e-06 0.07610953 -8.883576e-10
-8.8594035e-11 -8.929202e-12 -0.0004836307 -0.0005150109 -0.0011406455 -2.388213e-12 -4.76622e-27 0.08314482
-0.0024671494 -9.077895e-19 -0.004270663 0.12354713 -8.3598746e-11 -3.5630375e-05 -3.8401878e-19 -1.693639e-17
-8.024194e-16 -2.996642e-10 -0.0035144477 -9.470005e-05 -2.6824942e-10 0.03305208 -4.5310836e-17 -6.324593e-11
-6.679199e-18 -9.452206e-16 -0.00026113784 -4.6041204e-14 -1.4547757e-09 -0.0022947504 -9.122502e-28 -4.0318024e-05
0.12284553 -8.202127e-10 -0.0002352249 -5.2651308e-06 -0.0002447986 -1.1473488e-07 0.08494314 0.09735252
-1.5905032e-11 -3.6073214e-13 -0.00034579675 -3.4213255e-07 -2.3827035e-08 -5.2652788e-15 -2.666301e-18 -2.7681e-29
-1.9991206e-14 -2.9713392e-29 -3.508866e-23 -2.6839417e-09 -9.488193e-11 -0.031496886 -0.00049652375 0.05342367
-3.305417e-05 -1.1728851e-20 -0.003333829 -1.0156708e-07 -0.00014904352 -3.0056432e-13 -4.384243e-32 -4.8784062e-15
0.1195242 -1.491053e-15 -0.032464482 -2.1300034e-10 -1.0838035e-09 -9.430145e-21 -1.4466043e-09 -0.0004154788
-3.6603412e-06 0.10170192 -0.00029288596 0.061076276 -1.0646957e-10 -1.4999048e-05 -3.1259508e-05 -0.00098932
-0.0003312861 -2.126787e-08 0.08465699 -5.840195e-21 -2.3645295e-26 -0.0029720988 -1.0419777e-11 -5.0903917e-16
-6.597596e-21 -3.118431e-08 -5.176051e-06 0.029197056 -3.320805e-08 0.10006455 0.10325948 -4.0746045e-11
0.102495596 -1.6013278e-06 -4.1916653e-22 -0.0024264196 0.0951438 -2.0552014e-05 -4.7007966e-06 -4.844426e-22
00000000: 9c35 4595 10d8 c33d 0243 6fa5 719a b19f
00000010: ccb1 3db1 6f96 84b2 472e 98a4 4bcb dba9
00000020: d49c eea0 cd68 d03d 2239 9fb3 f1ec 243d
00000030: 6ac6 e7ae fdad 08bb 075b 223d 139e 12bb
00000040: 99c7 0ab8 e286 9eb2 60a9 2cac 853c 2fb0
00000050: 9ef5 a3ba 986b 80b9 5064 8ba8 1990 e9b9
00000060: bdaa 43a1 1962 acb5 b18e 5f9f ae81 f6b6
00000070: 0b9d 28bd 0112 75a9 fda5 333d 8ca4 8aab
00000080: 81a4 60b6 43e2 f63d 6ba9 e7ad 0beb 95b7
00000090: d0bb c0ba b6a5 adb6 91bb 59ad a4ed c39c
000000a0: ecfc 2aa3 91ca aa9e 3ce1 a7b8 3b5a 1db7
000000b0: 1ec0 4fb9 48fd 9db8 989a b3ae 6daf 0c3e
000000c0: 4da9 589d bf09 20af d467 06b8 651b 76bb
000000d0: bc1a d5b8 9006 97b9 0a04 91b9 d5fd 14b5
000000e0: d16b ec3d dd65 9bb2 2320 efa7 68f5 1bac
000000f0: fd83 043e 35c3 163e 65b1 d9b6 93b8 82a3
00000100: 6b06 84ae 86b4 d9a8 f1e9 efad f1c6 a5b6
00000110: 229b fdb3 8a90 269c 7760 94b6 c5ec b23d
00000120: a40f acb7 0b4a 07b1 feea 0b3d 931e 8aa3
00000130: 76ba 8a9f f8ad 8fb8 86f7 26a8 c8e2 b5a5
00000140: bd5f de3d 0963 3cb9 2dbc c6b1 1d8a 0db5
00000150: 6c11 26bb 1d8c bb9b 180a f2b3 82e2 4fb7
00000160: 4d6d f7ac e0fe a9b6 5cc2 8fb6 0d6d faa4
00000170: e0aa c63d a0d6 1cbd a05a 98b9 01f3 0499
00000180: 13e3 fcba 898f dcac 6cb9 f3b9 c524 78b6
00000190: 3a07 19a8 26f2 64a8 7285 ceba c6c2 d13d
000001a0: b9a2 82ba 9054 f3b5 ce89 1fac 2414 9ca4
000001b0: 2c65 a0b6 d6ce 9e3d f2a5 17a9 66ce 29bb
000001c0: 0f48 c5b5 4717 9db9 0ca8 ddac 96d7 86ba
000001d0: fcd7 53ab ca7f bca2 1fd3 10b0 a078 e7af
000001e0: b691 2f97 3a30 b1b8 81d8 7ebd ecd2 72b4
000001f0: b0d0 43a8 325d 12b0 1da5 a7a6 fb3a 59bb
00000200: 6aec 2ca0 91ac e6b6 3ebe 89ae 323c ffb9
00000210: c981 6eb8 e119 87b3 d79a daaf 7a00 67b6
00000220: 792b ae3b dccb 3ca7 6361 76b9 9308 033d
00000230: 7ebf 96aa f049 b4b1 0f2d bab8 4dff 1eb0
00000240: 7b5f a999 071b eeab b469 a395 fc4f 6eb7
00000250: dd88 15ab dda6 79b6 50df 9b3d 9c30 74b0
00000260: 02d2 c2ae 8d15 1dad d08f fdb9 cc01 07ba
00000270: b681 95ba 390e 28ac 37cf bc93 d547 aa3d
00000280: e6af 21bb 51f7 85a1 ebf0 8bbb 4706 fd3d
00000290: e9d5 b7ae d371 15b8 47af e2a0 ec35 9ca3
000002a0: 1a48 67a6 fdbd a4af a652 66bb b499 c6b8
000002b0: c078 93af 9e61 073d 98f5 50a4 4b14 8bae
000002c0: 406b f6a2 7c38 88a6 54e9 88b9 e559 4fa9
000002d0: 5ff1 c7b0 8663 16bb 448d 9092 261b 29b8
000002e0: 7096 fb3d 5675 61b0 b4a6 76b9 21ab b0b6
000002f0: 5058 80b9 2b64 f6b3 abf6 ad3d c260 c73d
00000300: f3e6 8bad fb12 cbaa 0e4c b5b9 57ae b7b4
00000310: 34ac ccb2 a0b3 bda7 00bd 44a2 fe5b 0c90
00000320: 9510 b4a8 30aa 1690 a8ad 299a 6770 38b1
00000330: c7a5 d0ae e102 01bd 2529 02ba c7d2 5a3d
00000340: a5a3 0ab8 3e8d 5d9e 5f7c 5abb 181d dab3
00000350: 9148 1cb9 e233 a9aa 96a4 638b 5bc3 afa7
00000360: 1bc9 f43d 25e2 d6a6 7af9 04bd 4432 6aaf
00000370: f2f4 94b0 6221 329e ddd1 c6b0 9fd4 d9b9
00000380: 2fa4 75b6 1949 d03d 7d8e 99b9 1e2b 7a3d
00000390: 0a21 eaae 6ca4 7bb7 a41c 03b8 12ac 81ba
000003a0: 78b0 adb9 8ab0 b6b2 a560 ad3d e6a2 dc9d
000003b0: f22b ea94 8bc7 42bb 814e 37ad 76b8 12a6
000003c0: 0940 f99d 83ef 05b3 f1ad adb6 aa2e ef3c
000003d0: a3a0 0eb3 a5ee cc3d b579 d33d f833 33ae
000003e0: 36e9 d13d 34ed d6b5 e15e fd9b 9104 1fbb
000003f0: c1da c23d 1d67 acb7 89bb 9db6 ee69 129c

fc3.weight f4 [1, 300]
6.434245e-06 0.6031565 0.0010006585 -0.00018566493 5.3097796e-05 9.1651396e-05 -4.2773296e-05 0.0011086399
-5.853734e-05 0.5873851 -0.0004257918 0.32103616 -4.1377443e-05 -0.0015269998 0.22296274 -0.0015830453
-4.2024414e-05 0.00198194 0.0010301317 0.0011619756 -0.001563338 0.0012155554 0.00023315712 -0.0009997251
9.4426485e-07 -0.00033773962 -0.00013340157 -5.74366e-06 -0.26585272 -6.9125513e-06 0.279689 -0.0008691846
-1.9884681e-05 0.56485945 0.0007150736 -0.00018121861 0.0008469693 7.422128e-06 2.7687252e-05 -4.9702785e-06
-3.759614e-05 0.00015977837 -6.900982e-05 -1.5259877e-05 -3.3791857e-05 -0.0024811365 -0.00020043962 0.68484026
0.0003378655 -0.0004973559 0.0017581166 0.0039039624 0.00041314447 0.0031648213 0.0014608828 -0.0021630179
0.70691794 0.0015020028 0.001625052 1.4713051e-05 0.65047413 0.37061942 4.873643e-06 -9.012226e-05
0.00012933965 -1.7577831e-05 -0.00011962183 -1.2214203e-05 0.000731877 -3.825842e-05 -0.0014628042 0.52190435
-6.804092e-06 0.00095091335 0.3266826 -0.00019860627 0.00011460815 1.4620983e-06 -0.00051939965 0.0009483147
0.510009 -0.001120726 0.00019882568 -1.911168e-07 0.0032175588 6.363913e-06 -0.0029646168 4.3831233e-06
0.0005433573 0.00025834114 0.00021520602 -0.0002481904 0.28804153 -0.3023913 1.28023175e-05 -1.8866274e-05
-0.0002415809 0.00021373975 0.0008875043 -0.00092262356 -0.0008995754 -1.8872277e-05 0.00064149895 0.5651274
-0.00047663026 -0.00015983965 0.0005527363 -0.00074709655 0.0021704223 0.49845767 -2.9614932e-05 0.003769089
0.00023320709 -0.00044235057 1.6069987e-05 0.000885516 7.664301e-13 0.00013143483 0.001415046 -0.0003160152
-6.4529922e-06 -0.0025062414 -0.3893146 -0.0014093835 1.2971504e-05 0.0012692432 8.917572e-05 -0.0060082125
0.00035762048 4.6390705e-05 -0.0005508582 -0.0019731517 3.9824017e-06 -0.0006087703 4.1391784e-05 0.0011381994
0.23194782 0.00012099867 0.00051526533 0.20164955 -3.2781588e-06 -0.00013890525 0.0007771152 0.00082528184
0.00047454453 -4.8858634e-05 1.1040278e-06 -0.0004551204 -0.00027994227 -0.00030425887 0.56370443 9.1907896e-05
-0.00013965764 0.00015080969 7.372828e-05 0.00036512644 0.0013741862 -2.2516597e-05 -7.148158e-05 0.5374012
0.0009878456 2.0213314e-05 0.0030774602 0.4048047 3.8742546e-05 4.2162555e-05 -7.345371e-05 -6.77582e-05
-4.3908625e-05 -1.2983315e-05 0.0019409787 0.000946519 -0.00037806985 0.2091161 -7.782968e-05 2.5088482e-05
0.0004901184 -0.0017591864 0.00010228109 9.519244e-05 0.00031606728 0.00013636934 -4.4125496e-05 -1.876051e-05
0.7470628 -0.0001370847 -2.3907009e-05 0.0040584086 -0.000222675 -0.00012213971 0.4546785 0.4733364
0.00023287388 9.2013564e-05 6.944546e-05 0.00085279456 -9.4981004e-07 0.00017316504 2.612173e-05 6.195479e-05
-0.0015343436 2.2710023e-05 1.0184073e-05 3.3248089e-06 0.0022931737 -0.30695996 -9.039079e-05 0.2919425
0.0005229013 -0.00011007807 0.0042232936 2.3648257e-08 0.0020498685 -0.0017819941 -1.1154717e-06 -3.520119e-05
0.37931657 9.974206e-06 -0.2564584 0.00028218652 6.909251e-07 -0.0002152001 0.0009210345 -0.0005281268
-0.000556558 0.54624313 0.00022388373 0.28398398 0.0011262465 -0.0009830178 1.5590049e-05 -0.0017602727
-0.00016959515 -2.4509445e-05 0.37772268 1.5860387e-05 -2.038248e-05 -0.0009456865 0.0001485863 -4.1397734e-06
-7.5051453e-06 -0.0030350408 -2.1376086e-06 0.2736227 -1.2778939e-08 0.377253 0.6748619 2.205186e-06
0.4344017 -0.001337646 2.6490157e-05 0.00021479164 0.4331733 0.00024294932 1.3008741e-05 -9.812964e-05
00000000: bee5 d736 7768 1a3f 8728 833a 0daf 42b9
00000010: 53b5 5e38 f834 c038 7a67 33b8 c84f 913a
00000020: fd85 75b8 df5e 163f cf3c dfb9 da5e a43e
00000030: b18c 2db8 9c25 c8ba 5850 643e 307e cfba
00000040: 5f43 30b8 6fe3 013b 7c05 873a 6e4d 983a
00000050: ebe8 ccba 4553 9f3a a37b 7439 3509 83ba
00000060: 6379 7d35 a512 b1b9 b6e1 0bb9 aab9 c0b6
00000070: d91d 88be 5df2 e7b6 6633 8f3e fed9 63ba
00000080: 07ce a6b7 a19a 103f c773 3b3a 8005 3eb9
00000090: 2607 5e3a 980b f936 ec41 e837 5ec6 a6b6
000000a0: 8cb0 1db8 2e8a 2739 5db9 90b8 5602 80b7
000000b0: bbbb 0db8 909a 22bb 1a2d 52b9 b151 2f3f
000000c0: 8a23 b139 fd60 02ba 9b70 e63a 9fd9 7f3b
000000d0: 509b d839 e468 4f3b 187b bf3a 6bc1 0dbb
000000e0: 93f8 343f dade c43a b2ff d43a 13d8 7637
000000f0: 7985 263f d4c1 bd3e 4688 a336 0500 bdb8
00000100: 599f 0739 1b74 93b7 7bdd fab8 9aeb 4cb7
00000110: 6fdb 3f3a aa77 20b8 90bb bfba 869b 053f
00000120: b54e e4b6 b746 793a f142 a73e f740 50b9
00000130: c859 f038 513d c435 5228 08ba 5298 783a
00000140: f38f 023f 53e5 92ba dd7b 5039 c935 4db4
00000150: aedd 523b 9989 d536 044a 42bb be12 9336
00000160: 1770 0e3a f671 8739 eda8 6139 8d1f 82b9
00000170: 2e7a 933e 08d3 9abe 89c9 5637 0443 9eb7
00000180: e150 7db9 541f 6039 68a7 683a 38dc 71ba
00000190: 7cd1 6bba e84f 9eb7 442a 283a 30ac 103f
000001a0: 3be4 f9b9 a19a 27b9 81e5 103a cdd8 43ba
000001b0: a53d 0e3b d835 ff3e 956d f8b7 d202 773b
000001c0: 0d89 7439 4aeb e7b9 09ce 8637 f921 683a
000001d0: 1cbb 572b c5d1 0939 1179 b93a d8ae a5b9
000001e0: c886 d8b6 c13f 24bb 3e54 c7be 10bb b8ba
000001f0: 2fa0 5937 bc5c a63a da03 bb38 8ae0 c4bb
00000200: 027f bb39 a493 4238 7867 10ba fe4f 01bb
00000210: 92a0 8536 e295 1fba 179c 2d38 a22f 953a
00000220: bb83 6d3e abc0 fd38 df12 073a 387d 4e3e
00000230: 57fe 5bb6 18a7 11b9 51b7 4b3a ba57 583a
00000240: 4acc f839 8fed 4cb8 1b2e 9435 3a9d eeb9
00000250: 37c5 92b9 ef84 9fb9 ef4e 103f adbe c038
00000260: 1071 12b9 ab22 1e39 929e 9a38 716e bf39
00000270: 0a1e b43a 06e2 bcb7 62e8 95b8 2093 093f
00000280: 997a 813a c38f a937 37af 493b 9042 cf3e
00000290: 7e7f 2238 b3d7 3038 290b 9ab8 6819 8eb8
000002a0: 872a 38b8 ead2 59b7 7068 fe3a d11f 783a
000002b0: ad37 c6b9 8822 563e 7e38 a3b8 1b75 d237
000002c0: 4a7b 003a 8094 e6ba be7f d638 0da2 c738
000002d0: d5b5 a539 5efe 0e39 6413 39b8 e35f 9db7
000002e0: 823f 3f3f 65be 0fb9 e98b c8b7 66fc 843b
000002f0: dd7d 69b9 a112 00b9 9fcb e83e 2659 f23e
00000300: 9b2f 7439 68f7 c038 3fa3 9138 138e 5f3a
00000310: 73f6 7eb5 a393 3539 fd1f db37 baed 8138
00000320: 071c c9ba 6781 be37 43dc 2a37 c81f 5f36
00000330: 1249 163b db29 9dbe 3090 bdb8 7d79 953e
00000340: 5013 093a b7d9 e6b8 8e63 8a3b 1123 cb32
00000350: 1657 063b cd91 e9ba 51b7 95b5 fda4 13b8
00000360: c835 c23e e356 2737 844e 83be 6ff2 9339
00000370: 0378 3935 56a7 61b9 9471 713a fd71 0aba
00000380: fae5 11ba 97d6 0b3f 55c2 6a39 5966 913e
00000390: 909e 933a 9bd8 80ba 60c7 8237 f3b8 e6ba
000003a0: 5ad5 31b9 a299 cdb7 de64 c13e ec0b 8537
000003b0: 0bfb aab7 f2e7 77ba d5cd 1b39 62e8 8ab6
000003c0: b5d4 fbb6 89e7 46bb d673 0fb6 4618 8c3e
000003d0: 5e8a 5bb2 4e27 c13e c0c3 2c3f cffc 1336
000003e0: e669 de3e f453 afba 2e37 de37 b139 6139
000003f0: e4c8 dd3e 36c0 7e39 1e40 5a37 f3ca cdb8
